zheye.pt (torch, 507529 bytes, 10 tensors)

weight f4 [128, 1, 3, 3]
0.30338338 -0.10754416 -0.2500328 0.2595365 0.07540972 -0.21885206 -0.030126287 0.2411497
-0.25878477 -0.19233982 0.11616288 0.0025804935 -0.26314223 -0.18723994 -0.34929043 -0.27662912
-0.06037246 0.23626477 -0.31796646 0.14901268 0.16113307 0.027451156 0.23821266 0.17854233
-0.005575993 -0.14728656 -0.12315015 -0.08007763 0.0493898 -0.31191 0.08626195 0.10451209
-0.21337484 0.10927206 -0.23839979 -0.21491937 0.28653395 -0.22814488 0.17720418 -0.31135547
0.14554127 0.13350214 0.19905615 0.049683593 -0.14656696 -0.33381212 0.122212425 0.27185196
-0.13958275 -0.068000674 0.014482771 0.28319636 -0.0073560043 0.20840165 0.15296835 -0.2239562
-0.2693259 0.089339286 -0.28474998 -0.13507031 0.43171468 0.25879207 -0.069421984 -0.121652186
0.09903165 -0.13704143 -0.0070460746 0.18485987 0.14223057 -0.23045231 -0.020136012 0.31849155
0.13614254 0.46992487 0.29076403 -0.0109004425 -0.13696727 -0.18329847 0.035989005 -0.3623896
-0.10714301 -0.076707825 0.30617338 0.07697883 -0.35584974 0.2590997 0.24333301 0.008530867
0.035392325 0.18056278 0.221656 -0.12261385 -0.066556856 0.095457606 -0.046880174 -0.06525273
-0.13616209 -0.13481276 -0.3132817 -0.20399204 -0.16496322 -0.30659905 -0.08793413 0.015905904
0.10644948 -0.055678193 -0.047589794 -0.13133715 -0.27198714 -0.201286 -0.112131804 -0.06713591
0.014946296 -0.09258766 -0.2725176 -0.32816172 -0.10268723 0.31003585 0.04458194 0.2538408
0.0009403205 -0.2887457 0.06558428 0.3085705 -0.12643038 0.103251785 0.01763968 -0.031890344
0.011024772 0.10503302 -0.32188055 0.24001116 0.24681962 0.21333541 0.07890201 0.22991875
-0.09713006 0.14443491 0.37772053 0.23492181 0.33806822 0.05074483 -0.2214919 -0.27936408
-0.103892595 0.31461182 0.16329761 -0.17109187 -0.37453657 -0.25494117 0.093802564 0.22250243
-0.11906269 -0.13077462 -0.016466305 -0.22393577 -0.3344365 -0.3031572 -0.1644291 -0.17299657
0.20976005 0.07818088 0.16549143 -0.021820312 0.1548107 -0.019483201 0.3023332 0.10212658
-0.16448589 0.2588697 0.34894314 0.03632938 -0.3168247 -0.106029674 0.24929684 0.084068
0.019795237 -0.021012029 0.14031208 -0.31189343 -0.09179442 0.35600707 0.02972371 0.09839812
-0.11230311 -0.103306375 -0.28068328 0.0649521 -0.20277746 0.32389107 -0.02768005 -0.3577508
0.227918 0.19519009 0.189677 0.17815587 0.2603557 0.08814915 -0.039435998 0.35143185
-0.015411103 0.23586802 0.31860346 -0.24668303 0.17180878 0.14144954 -0.071506366 0.23374674
0.008558995 0.033909217 0.0673203 -0.1864273 -0.26091295 -0.16880265 -0.32820192 0.24287692
-0.09239378 -0.28078756 -0.17191204 0.03934315 -0.24017338 0.020142479 0.112015344 0.16531326
0.016246982 0.100025624 0.33589438 0.33409134 0.11013205 -0.17646524 0.23121315 0.23422572
-0.107127376 -0.28067082 -0.3679639 -0.20059505 -0.10862468 -0.11709132 -0.33202553 -0.30502045
0.14892597 0.0798977 -0.15823747 -0.32013497 -0.046391573 -0.04846672 -0.20075384 0.13594176
0.14741829 -0.01953044 0.20071377 -0.17561404 0.32587397 -0.04095684 -0.14570445 0.03629991
00000000: 1155 9b3e 1d40 dcbd 4d04 80be f8e1 843e
00000010: 6970 9a3d c11a 60be 67cb f6bc f2ef 763e
00000020: 707f 84be bbf4 44be cee6 ed3d 7f1d 293b
00000030: 94ba 86be d4bb 3fbe 32d6 b2be 55a2 8dbe
00000040: 1d49 77bd 64ef 713e 80cc a2be c896 183e
00000050: 1100 253e 3fe1 e03c 05ee 733e cdd3 363e
00000060: d2b6 b6bb 4ad2 16be 2536 fcbd beff a3bd
00000070: f54c 4a3d abb2 9fbe 1baa b03d 6f0a d63d
00000080: ef7e 5abe 08ca df3d 131f 74be d313 5cbe
00000090: 94b4 923e d09e 69be 0375 353e fc69 9fbe
000000a0: c508 153e c9b4 083e 60d5 4b3e 0681 4b3d
000000b0: a615 16be 6ce9 aabe 824a fa3d 2e30 8b3e
000000c0: c8ee 0ebe f043 8bbd 2549 6d3c 1dff 903e
000000d0: a30a f1bb 3e67 553e bca3 1c3e c654 65be
000000e0: 16e5 89be 84f7 b63d c0ca 91be df4f 0abe
000000f0: b509 dd3e 6580 843e 1d2d 8ebd c824 f9bd
00000100: 1bd1 ca3d 9754 0cbe c2e2 e6bb e84b 3d3e
00000110: e4a4 113e b1fb 6bbe 47f4 a4bc 5311 a33e
00000120: f368 0b3e fe99 f03e 06df 943e c597 32bc
00000130: 2641 0cbe 98b2 3bbe 3569 133d 218b b9be
00000140: cb6d dbbd fe18 9dbd c2c2 9c3e 14a7 9d3d
00000150: f031 b6be b7a8 843e 4a2c 793e 0dc5 0b3c
00000160: 8bf7 103d 73e5 383e caf9 623e f81c fbbd
00000170: f64e 88bd 477f c33d 6d05 40bd 39a3 85bd
00000180: 136e 0bbe 5b0c 0abe 7566 a0be 4ae3 50be
00000190: 1eec 28be 8dfa 9cbe cf16 b4bd 194d 823c
000001a0: 2f02 da3d d10e 64bd 84ed 42bd 3f7d 06be
000001b0: e641 8bbe eb1d 4ebe 5ca5 e5bd 8d7e 89bd
000001c0: 4fe1 743c 999e bdbd 6d87 8bbe d004 a8be
000001d0: af4d d2bd 05bd 9e3e 8d9b 363d 6cf7 813e
000001e0: d77f 763a 7ad6 93be 0d51 863d f4fc 9d3e
000001f0: f776 01be ac75 d33d 1781 903c 739f 02bd
00000200: 3fa1 343c 8d1b d73d 87cd a4be 7cc5 753e
00000210: 48be 7c3e 9974 5a3e 6197 a13d d26f 6b3e
00000220: 20ec c6bd bfe6 133e 9664 c13e 588f 703e
00000230: 4717 ad3e d0d9 4f3d c6ce 62be cf08 8fbe
00000240: a4c5 d4bd cd14 a13e 7d37 273e b532 2fbe
00000250: 42c3 bfbe a687 82be 8f1b c03d add7 633e
00000260: 24d7 f3bd c8e9 05be 58e4 86bc 6b4f 65be
00000270: 433b abbe 6c37 9bbe 1a60 28be 0326 31be
00000280: 57cb 563e 4c1d a03d 9676 293e 83c0 b2bc
00000290: b286 1e3e 3c9b 9fbc 6bcb 9a3e be27 d13d
000002a0: fd6e 28be 928a 843e ada8 b23e 1ece 143d
000002b0: d936 a2be 1626 d9bd ac47 7f3e d82b ac3d
000002c0: 9f29 a23c 6b21 acbc f8ad 0f3e 7fb0 9fbe
000002d0: b6fe bbbd 8f46 b63e 237f f33c f484 c93d
000002e0: 2cff e5bd 4b92 d3bd b8b5 8fbe 9b05 853d
000002f0: e5a4 4fbe 0dd5 a53e 46c1 e2bc 1d2b b7be
00000300: 5663 693e e9df 473e b03a 423e 7e6e 363e
00000310: 584d 853e 8b87 b43d a487 21bd e0ee b33e
00000320: da7e 7cbc 6387 713e fe1f a33e 7a9a 7cbe
00000330: a4ee 2f3e 26d8 103e ee71 92bd 4e5b 6f3e
00000340: 073b 0c3c 64e4 0a3d 3adf 893d cce6 3ebe
00000350: 6296 85be 9ada 2cbe 150a a8be bab4 783e
00000360: f338 bdbd 63c3 8fbe b609 30be 4826 213d
00000370: 03f0 75be d701 a53c 4d68 e53d e147 293e
00000380: 6418 853c 3cda cc3d 59fa ab3e 050e ab3e
00000390: ea8c e13d 4eb3 34be 24c3 6c3e ded8 6f3e
000003a0: 9965 dbbd 16b4 8fbe c465 bcbe ca68 4dbe
000003b0: 9e76 debd 93cd efbd 40ff a9be a42b 9cbe
000003c0: 0d80 183e 68a1 a33d 0109 22be bbe8 a3be
000003d0: 1705 3ebd 0a85 46bd 6a92 4dbe 5134 0b3e
000003e0: d2f4 163e 4dfe 9fbc e987 4d3e 2bd4 33be
000003f0: f4d8 a63e 5cc2 27bd 8c33 15be 37af 143d

bias f4 [128]
-0.049148407 0.25255802 0.029206416 0.16458671 0.20462942 -0.21586372 0.026346244 0.06895191
0.13027132 0.0618562 0.031869438 0.17426324 0.055313155 0.13279663 0.043424148 0.028653204
-0.07015238 -0.31871623 -0.08772841 -0.23022306 0.030713605 0.011451761 -0.054872856 0.11792193
0.18645787 0.31840566 0.05523981 -0.30094534 0.31199685 0.18143313 0.19433528 -0.06490534
0.016511066 0.00471672 -0.003433345 -0.12789047 -0.07611042 0.09585261 -0.051276308 -0.19512783
-0.13717437 -0.25891143 -0.25694466 0.08763715 0.16888046 0.10741666 0.22878511 -0.26733893
-0.092821196 0.22886047 0.13290954 -0.07472972 -0.24894674 0.018967437 -0.008823923 -0.11768772
-0.30569026 -0.06839233 0.23855023 0.26461643 -0.15268697 0.21114495 0.039957535 -0.0018043435
-0.046449758 -0.26440722 -0.029117903 -0.31805223 -0.17951846 -0.0012278128 0.22170037 -0.016200708
-0.30813745 0.1247374 -0.038327742 -0.061923053 -0.22712137 0.23194106 0.2734579 -0.1287291
0.016378518 0.15567835 -0.03086809 0.24404953 0.1701302 0.050523475 0.24679777 0.27924865
0.302143 -0.0131663345 0.24451731 0.28825134 -0.2926655 -0.16707666 0.29070514 -0.11580257
-0.26281565 0.31186283 -0.061729625 -0.17754865 0.27214664 -0.09290441 0.22206938 -0.02875987
-0.23418084 0.22438791 0.045575283 0.22837229 -0.17072764 -0.13304362 0.17417568 0.14744803
0.24582162 -0.2648956 -0.049592324 -0.10211974 0.2813 -0.05980921 -0.20540945 0.06615818
0.26433885 -0.1949549 0.23475292 0.030933302 -0.21219932 0.0018589522 -0.18747883 -0.30372575
00000000: d74f 49bd 494f 813e 4b42 ef3c 6b89 283e
00000010: 608a 513e 610b 5dbe 14d4 d73c a936 8d3d
00000020: d865 053e ed5c 7d3d 8789 023d 1072 323e
00000030: 0c90 623d d7fb 073e 85dd 313d 20ba ea3c
00000040: 0dac 8fbd c62e a3be f4aa b3bd 98bf 6bbe
00000050: 199b fb3c 2ba0 3b3c 5cc2 60bd 0e81 f13d
00000060: d0ee 3e3e 1106 a33e 2443 623d 8215 9abe
00000070: 0dbe 9f3e 9bc9 393e d4ff 463e 17ed 84bd
00000080: 3742 873c b78e 9a3b f801 61bb b8f5 02be
00000090: c8df 9bbd 604e c43d 1b07 52bd 97cf 47be
000000a0: 7077 0cbe 0a90 84be 408e 83be 1b7b b33d
000000b0: 00ef 2c3e 44fd db3d a546 6a3e a6e0 88be
000000c0: 0a19 bebd 665a 6a3e 7019 083e e50b 99bd
000000d0: e5eb 7ebe 9961 9b3c 3792 10bc 4206 f1bd
000000e0: 6f83 9cbe 4711 8cbd 8346 743e ce7b 873e
000000f0: f959 1cbe 6236 583e 83aa 233d b97f ecba
00000100: 1a42 3ebd 6260 87be ab88 eebc bed7 a2be
00000110: b0d3 37be 90ee a0ba 6c05 633e 59b7 84bc
00000120: 31c4 9dbe 5276 ff3d 8dfd 1cbd 07a3 7dbd
00000130: 8192 68be f581 6d3e ad02 8c3e 90d1 03be
00000140: 3e2c 863c 256a 1f3e 14df fcbc 1fe8 793e
00000150: 9c36 2e3e b4f1 4e3d 8eb8 7c3e aef9 8e3e
00000160: 7db2 9a3e 9cb7 57bc bf62 7a3e ae95 933e
00000170: 41d8 95be 2516 2bbe 4ed7 943e e629 edbd
00000180: c68f 86be 7cac 9f3e 34d8 7cbd 50cf 35be
00000190: ce56 8b3e ab44 bebd 2866 633e d299 ebbc
000001a0: 1acd 6fbe f2c5 653e 26ad 3a3d 6dda 693e
000001b0: 3ad3 2ebe 963c 08be 1c5b 323e 9efc 163e
000001c0: aab8 7b3e 65a0 87be 5221 4bbd 2724 d1bd
000001d0: 8e06 903e 81fa 74bd db56 52be f17d 873d
000001e0: 6c57 873e 42a2 47be 1263 703e d667 fd3c
000001f0: c74a 59be 16a8 f33a 73fa 3fbe f181 9bbe

weight f4 [64, 128, 3, 3]
-0.004396233 0.014705085 -0.010343148 -0.0035734195 0.006583357 0.014481362 0.021690652 -0.015692137
-0.012231061 0.019976407 -0.0051562022 -0.0048246905 -0.021401841 0.05803624 -0.0061112205 0.033552565
-0.048095103 -0.009606214 0.025076862 -0.013415342 -0.029540012 -0.022410467 0.014776606 0.023562264
-0.009424485 0.023902498 0.016470557 -0.021114942 -0.027753593 0.0050604106 0.013761236 -0.012773522
-0.033021316 -0.030498082 -0.030877702 0.006022992 -0.012999464 0.011963581 0.013838375 0.013262209
-0.020433836 -0.0028491407 0.0020380132 0.03339243 -0.020373143 0.037794463 0.032613035 0.028447077
0.039152034 -0.0018777134 0.037601534 -0.023484875 0.014534833 -0.006354911 0.029771276 0.02771807
-0.05100556 0.004686716 0.009372317 0.0122043025 -0.019517837 -0.0052855476 -0.033608336 0.0055621727
0.012043932 0.005969093 0.009366737 0.0051980778 0.0030144441 -0.016421374 -0.026044264 0.0058630966
-0.013481136 -0.022219464 -0.002288354 -0.003761337 -0.034094788 0.031094838 -0.018477026 0.013567216
0.051246252 0.063600466 -0.0038977496 0.019942963 0.01926503 -0.012555581 0.0071470467 -0.0038983675
-0.03140186 -0.030359978 -0.0036927904 -0.014405449 -0.035283156 -0.015865427 -0.03319846 -0.016278176
-0.03396182 0.011469902 0.04293921 -0.03217814 -0.029191619 0.01504295 -0.019567166 -0.027012346
-0.00070621294 0.012501655 -0.018616412 -0.001989699 -0.0190893 0.022895627 0.033221986 -0.026299026
0.020344773 -0.03225534 0.0021598558 -0.035492115 0.02234544 0.016520418 0.0011937786 -0.0023990453
-0.037013598 0.0058080484 0.0050976 0.01349033 0.015076608 -0.015039299 0.023607692 0.004943633
0.020480005 -0.014975201 0.02250719 0.062367927 -0.004173383 0.020851875 0.0046723955 -0.038538378
-0.01886194 0.026227241 -0.003399112 -0.011968807 0.051635552 -0.021855727 -0.0052267546 -0.009062324
-0.011283087 0.012247646 0.027213126 -0.025965167 -0.0118566 -0.010832177 0.019000115 0.020853428
0.021234147 -0.027897324 -0.041362442 -0.032796778 -0.028449554 0.04223906 0.013599829 -0.013086396
-0.007783797 0.026824145 0.037987523 0.019517811 0.025678948 -0.030210594 -0.031444576 -0.050523337
0.00055217644 -0.0005024057 -0.03992532 -0.0015196761 0.03466755 0.0075597484 0.02420428 0.026783107
0.01309339 0.004862945 -0.012017886 -0.013003142 0.015109317 -0.0066063474 -0.023048522 0.015271265
0.014409035 -0.0049362415 -0.02891206 -0.003037025 0.007577113 -0.0149121815 0.034120876 0.0015899903
-0.026158096 -0.050958496 -0.04858857 -0.028605709 -0.043437704 -0.040480264 0.0013483007 0.007225235
-0.025758412 -0.00010312262 -0.019776586 -0.013711465 -0.014620028 0.03441955 -0.006103865 0.019526761
-0.0057866676 0.005923483 -0.0285562 -0.0002611007 0.01717933 -0.023216764 0.013015864 0.03509251
-0.0005096734 0.0221064 -0.0047348533 0.005137987 0.0259672 0.018388292 -0.031185638 -0.020966137
0.007916417 0.010116872 -0.027269196 -0.009956541 -0.04236515 -0.0037344762 -0.00045966575 0.016732587
0.024811301 0.033640753 0.009690831 0.013467333 0.022060677 0.0274669 -0.028792517 -0.008447723
-0.027749604 -0.037862632 -0.015858365 0.0034376865 -0.021084404 -0.012212411 0.033365298 0.038425107
0.0074482914 0.005041257 0.043818776 0.024496382 -0.008152888 0.014672017 -0.017310483 -0.033222333
00000000: 460e 90bb 99ed 703c 4f76 29bc 0830 6abb
00000010: 34b9 d73b 3c43 6d3c 98b0 b13c cc8c 80bc
00000020: ca64 48bc 90a5 a33c 5cf5 a8bb 7018 9ebb
00000030: ea52 afbc 69b7 6d3d a240 c8bb 6a6e 093d
00000040: 5fff 44bd 6263 1dbc fe6d cd3c 06cc 5bbc
00000050: e5fd f1bc 2896 b7bc 9419 723c a605 c13c
00000060: 2869 1abc 2ccf c33c 43ed 863c 3ef9 acbc
00000070: 815b e3bc cdd1 a53b cf76 613c 0948 51bc
00000080: 5c41 07bd 1dd7 f9bc 3cf3 fcbc 855c c53b
00000090: b4fb 54bc e502 443c 5aba 623c bc49 593c
000000a0: dc64 a7bc a6b8 3abb 3090 053b 80c6 083d
000000b0: 94e5 a6bc 5ece 1a3d 3f95 053d d809 e93c
000000c0: e25d 203d 9b1d f6ba 1104 1a3d 5a63 c0bc
000000d0: 8223 6e3c db3c d0bb e4e2 f33c 0211 e33c
000000e0: 35eb 50bd 0693 993b 598e 193c 8ef4 473c
000000f0: dfe3 9fbc 6332 adbb e5a8 09bd e342 b63b
00000100: ea53 453c 6298 c33b f176 193c a354 aa3b
00000110: fb8d 453b 1e86 86bc c85a d5bc 381f c03b
00000120: fcdf 5cbc 9805 b6bc 36f8 15bb c380 76bb
00000130: faa6 0bbd 9aba fe3c 225d 97bc 0749 5e3c
00000140: 97e7 513d f640 823d 6371 7fbb 6d5f a33c
00000150: b2d1 9d3c ecb5 4dbc c631 ea3b c17b 7fbb
00000160: 3d9f 00bd 7db5 f8bc be02 72bb d504 6cbc
00000170: 1285 10bd 36f8 81bc 1cfb 07bd cf59 85bc
00000180: 8d1b 0bbd 41ec 3b3c 06e1 2f3d 3acd 03bd
00000190: 4323 efbc b576 763c 524b a0bc ff48 ddbc
000001a0: 2621 39ba bed3 4c3c 7281 98bc 9c65 02bb
000001b0: 2a61 9cbc 9c8f bb3c c713 083d 0e71 d7bc
000001c0: 15aa a63c 2d1e 04bd 5e8c 0d3b 2e60 11bd
000001d0: c90d b73c d455 873c 9078 9c3a 4d39 1dbb
000001e0: 929b 17bd 7151 be3b c509 a73b 8c06 5d3c
000001f0: e103 773c 6467 76bc eb64 c13c 33fe a13b
00000200: afc5 a73c 8c5a 75bc 0061 b83c 8375 7f3d
00000210: e0c0 88bb 8dd1 aa3c e51a 993b 6bda 1dbd
00000220: 5b84 9abc 83da d63c a3c3 5ebb d118 44bc
00000230: cd7f 533d c80a b3bc 3245 abbb 247a 14bc
00000240: b2dc 38bc 5aaa 483c 10ee de3c e7b4 d4bc
00000250: 2f42 42bc 7179 31bc 21a6 9b3c cfd4 aa3c
00000260: 3cf3 ad3c ee88 e4bc aa6b 29bd ea55 06bd
00000270: 0a0f e9bc dd02 2d3d d1d1 5e3c 5368 56bc
00000280: 390f ffbb 4fbe db3c ce98 1b3d d1e3 9f3c
00000290: a85c d23c 357c f7bc 07cc 00bd 8ff1 4ebd
000002a0: efbf 103a e0b3 03ba bb88 23bd de2f c7ba
000002b0: 90ff 0d3d c4b7 f73b 0e48 c63c 3f68 db3c
000002c0: a885 563c 5759 9f3b abe6 44bc 210b 55bc
000002d0: 128d 773c 0f7a d8bb 41d0 bcbc 5434 7a3c
000002e0: e013 6c3c 32c0 a1bb fcd8 ecbc d308 47bb
000002f0: 6e49 f83b 3952 74bc 55c2 0b3d 3967 d03a
00000300: 8149 d6bc dbb9 50bd cf04 47bd 8556 eabc
00000310: bceb 31bd a2ce 25bd 77b9 b03a aac1 ec3b
00000320: 4e03 d3bc 8943 d8b8 8202 a2bc 0da6 60bc
00000330: d888 6fbc 84fb 0c3d ee02 c8bb 96f6 9f3c
00000340: 169e bdbb c719 c23b b1ee e9bc 58e4 88b9
00000350: abbb 8c3c 1531 bebc 7e40 553c 2abd 0f3d
00000360: 9a9b 05ba 7b18 b53c d426 9bbb 8f5c a83b
00000370: 2ab9 d43c 0ba3 963c 0679 ffbc 2dc1 abbc
00000380: dcb3 013c 3dc1 253c a663 dfbc c220 23bc
00000390: 1487 2dbd 1dbe 74bb 4bff f0b9 c712 893c
000003a0: 1241 cb3c e3ca 093d 4bc6 1e3c 17a6 5c3c
000003b0: 98b8 b43c 4402 e13c 49de ebbc 5268 0abc
000003c0: 2353 e3bc d915 1bbd 67e9 81bc cf4a 613b
000003d0: 33b9 acbc 9016 48bc 0daa 083d a563 1d3d
000003e0: cc10 f43b 2131 a53b 517b 333d a3ac c83c
000003f0: b193 05bc e662 703c b7ce 8dbc 2414 08bd

bias f4 [64]
-0.027117182 0.002899841 0.00028409422 -0.016765825 -0.020257095 0.01494354 0.008920822 -0.030442217
-0.012063214 -0.04028522 -0.0013333313 0.014345854 0.012978984 -0.014441098 -0.0019493814 0.015726194
-0.02029906 -0.01013871 -0.021274712 -0.008686647 -0.034632213 0.014512522 -0.036925625 -0.021727761
-0.031717777 -0.035890672 -0.016850604 6.584184e-05 0.0029702508 -0.032903675 -0.03503936 0.0042167665
-0.015254408 -0.055024344 0.015179268 -0.07010322 -0.00017535011 -0.03870791 -0.009836668 -0.007880185
-0.023396358 -0.026341442 0.00084212807 -0.038120463 0.017900866 0.026268203 0.0061553176 -0.026261644
-0.04236699 0.0051096017 -0.011684076 -0.016697818 -0.032694492 -0.0027301635 0.02114959 -0.0067229415
0.030487036 -0.024238124 0.012961856 -0.029261874 0.005882301 -0.044205394 0.0021852732 -0.015535972
00000000: da24 debc 420b 3e3b 7bf2 9439 7c58 89bc
00000010: 35f2 a5bc c0d5 743c a428 123c f561 f9bc
00000020: c9a4 45bc 1d02 25bd 2dc3 aeba df0a 6b3c
00000030: cea5 543c 5b9a 6cbc 6382 ffba 38d4 803c
00000040: 374a a6bc d51c 26bc 4e48 aebc 7052 0ebc
00000050: 82da 0dbd eec5 6d3c 533f 17bd 6bfe b1bc
00000060: 80ea 01bd 1902 13bd 470a 8abc 9214 8a38
00000070: 8aa8 423b 01c6 06bd 6f85 0fbd cd2c 8a3b
00000080: a0ed 79bc 3561 61bd 77b2 783c 4792 8fbd
00000090: 30de 37b9 2f8c 1ebd fa29 21bc e41b 01bc
000000a0: b8a9 bfbc 02ca d7bc 42c2 5c3a 3424 1cbd
000000b0: d6a4 923c 6a30 d73c 8cb2 c93b a922 d7bc
000000c0: 0289 2dbd 726e a73b 916e 3fbc ddc9 88bc
000000d0: a9ea 05bd 8bec 32bb e841 ad3c 1f4c dcbb
000000e0: f3bf f93c 088f c6bc f75d 543c 99b6 efbc
000000f0: 51c0 c03b b710 35bd cd36 0f3b 978a 7ebc

weight f4 [32, 64, 3, 3]
0.03579169 0.032861117 -0.044434983 0.085508466 0.06695029 0.012309477 0.020437576 0.043366563
0.004805361 -0.008362894 0.0412653 -0.043269414 -0.019057203 0.06113734 -0.037302237 0.039891087
0.01712903 -0.026381591 0.052526154 -0.01860494 -0.004191456 0.03522832 -0.042395428 -0.01216058
0.0052175517 -0.052792627 -0.07282819 -0.06063322 -0.06650815 -0.026594166 0.001786182 -0.031656638
0.028099386 -0.043774627 0.018889688 0.027779724 -0.040026132 0.029349588 -0.0023910273 0.022976387
-0.0012043947 0.020077363 -0.0069133095 0.0040835966 0.022447376 0.016534721 -0.015719244 0.017015174
-0.027315263 -0.08121709 0.016098754 0.023600712 -0.025221853 -0.036959477 0.03696762 -0.047179375
0.0034880121 0.0029299115 0.00046987052 0.030977793 0.055808067 -0.033289883 0.006913009 0.005078663
0.054540433 -0.012851175 -0.003658726 -0.011649482 0.0039072335 0.024666075 0.013038808 0.010599986
0.01561339 0.0005980791 0.067553475 0.03470241 -0.012068363 0.009836366 0.045963448 0.038605087
0.0131738065 -0.03242331 -0.01433235 0.022916824 -0.099046454 0.07237977 -0.0113894865 -0.033476
-0.0064918227 -0.020448621 -0.04509786 -0.021430723 0.017048793 -0.0064640096 0.020026078 -0.02549657
0.001119863 -0.029470688 -0.015879143 -0.009746088 -0.022488834 0.036174133 0.019415757 0.055733565
0.059338737 -0.010768966 -0.035223242 -0.054811355 0.0028246187 -0.01606309 -0.012419985 0.024427978
0.05196506 0.061370462 -0.009868965 -0.0066604544 -0.013367474 -0.019171178 -0.00052288995 0.027753213
-0.040781308 0.03715091 0.0070338147 0.05200752 0.055739086 -0.02322806 -0.018652707 -0.020546488
-0.047857434 -0.036356345 0.04557182 0.001882809 -0.039960038 0.01714327 0.032342855 0.015271021
-0.008926137 -0.005502649 -0.009704366 0.0015386377 -0.0286207 0.023616763 -0.04787996 -0.04036319
0.023570461 -0.020274404 -0.03938601 0.0088531785 0.001150245 0.026449898 0.014320495 -0.0028456931
-0.0056739333 9.766184e-05 -0.023618234 -0.0029766166 -0.03121825 0.04820138 0.025902309 -0.020775635
0.009901375 0.028003827 0.020956978 0.0044831787 -0.037395425 0.012905023 -0.06434572 0.0062849023
-0.06646108 -0.024193347 0.00048610495 0.0021820676 -0.015997138 0.04603419 0.05570918 -0.002505898
0.022989752 0.011019348 -0.042580415 -0.019180452 -0.0378861 0.009861053 -0.01900479 -0.024415605
0.0031333528 0.0048259473 0.015519064 -0.013855843 0.0021685723 0.025784405 -0.00444492 0.041553352
0.0003502945 -0.074505344 0.024317497 0.006375429 0.016845591 0.01878274 -0.0042667342 -0.015151516
-0.017333897 0.029196598 0.04573269 0.02078288 0.041095883 -0.010018588 -0.018399702 -0.0492165
0.05357216 -0.022075884 0.012671421 0.027103592 -0.03953508 -0.040055823 -0.026318334 0.03193096
0.017072005 0.03429641 0.012006929 -0.0034825283 0.024563339 0.04029606 0.06661211 -0.0056608184
-0.05953824 -0.045667652 -0.026634693 0.025085252 0.032192934 -0.046798673 -0.04174423 0.04304318
-0.049033236 0.02066023 -2.7321023e-05 0.028909778 -0.023939122 -0.019031981 -0.039567627 0.013573445
0.06732469 -0.038171284 -0.031406786 0.045636028 0.05819738 0.0152194835 -0.05270925 0.023557851
-0.008104295 0.026493557 -0.022564003 -0.029386222 -0.011154201 0.00067756855 -0.0035326045 0.029017549
00000000: 4f9a 123d 6199 063d 7501 36bd 101f af3d
00000010: 3c1d 893d b0ad 493c b46c a73c 23a1 313d
00000020: 4a76 9d3b 8504 09bc ce05 293d 453b 31bd
00000030: da1d 9cbc 266b 7a3d 3bca 18bd d664 233d
00000040: 2e52 8c3c 351e d8bc aa25 573d 6369 98bc
00000050: 7b58 89bb 924b 103d d4a6 2dbd 2b3d 47bc
00000060: fff7 aa3b 153d 58bd f226 95bd 8a5a 78bd
00000070: 6d35 88bd 02dc d9bc 531e ea3a 64aa 01bd
00000080: af30 e63c 064d 33bd 8cbe 9a3c 4e92 e33c
00000090: 71f2 23bd 8c6e f03c c8b2 1cbb fa38 bc3c
000000a0: c8dc 9dba 4879 a43c 0b89 e2bb b1cf 853b
000000b0: 8fe3 b73c d373 873c a5c5 80bc 6863 8b3c
000000c0: 42c4 dfbc 2555 a6bd 89e1 833c 4856 c13c
000000d0: 0f9e cebc d262 17bd 5c6b 173d 293f 41bd
000000e0: 2297 643b c203 403b f458 f639 24c5 fd3c
000000f0: 0097 643d f95a 08bd 8686 e23b ea6a a63b
00000100: ca65 5f3d bc8d 52bc 3dc7 6fbb 78dd 3ebc
00000110: 4008 803b 8210 ca3c b9a0 553c 90ab 2d3c
00000120: 4ecf 7f3c 69c8 1c3a 7a59 8a3d 1d24 0e3d
00000130: 62ba 45bc b628 213c 2b44 3c3d 5e20 1e3d
00000140: f3d6 573c 4ece 04bd 3cd2 6abc 10bc bb3c
00000150: ded8 cabd d83b 943d f89a 3abc 211e 09bd
00000160: 5bb9 d4bb de83 a7bc 89b8 38bd 7c8f afbc
00000170: e9a9 8b3c 0bd0 d3bb bb0d a43c 2fde d0bc
00000180: 5ec8 923a 836c f1bc fa14 82bc 0eae 1fbc
00000190: 813a b8bc 542b 143d cb0d 9f3c e148 643d
000001a0: 2d0d 733d 5170 30bc 3f46 10bd df81 60bd
000001b0: 3d1d 393b be96 83bc 317d 4bbc 2f1d c83c
000001c0: 51d9 543d 985f 7b3d 70b1 21bc f13f dabb
000001d0: 4003 5bbc e00c 9dbc 8d12 09ba b55a e33c
000001e0: 4d0a 27bd 8d2b 183d ea7b e63b d605 553d
000001f0: ab4e 643d c648 bebc 90cd 98bc 1c51 a8bc
00000200: 2806 44bd 64ea 14bd 84a9 3a3d 96c8 f63a
00000210: 23ad 23bd 0b70 8c3c f179 043d 4e33 7a3c
00000220: ef3e 12bc 914f b4bb 10ff 1ebc 1dac c93a
00000230: f575 eabc f177 c13c c71d 44bd df53 25bd
00000240: d716 c13c 8216 a6bc 3a53 21bd ec0c 113c
00000250: d1c3 963a 75ad d83c 82a0 6a3c cf7e 3abb
00000260: 67ec b9bb cdcf cc38 077b c1bc 5713 43bb
00000270: 6abd ffbc cf6e 453d 1431 d43c aa31 aabc
00000280: 6039 223c 4868 e53c f8ad ab3c a1e7 923b
00000290: f22b 19bd 976f 533c b0c7 83bd 95f1 cd3b
000002a0: bf1c 88bd 2031 c6bc e7db fe39 0501 0f3b
000002b0: 6e0c 83bc 598e 3c3d 4f2f 643d fe39 24bb
000002c0: 0155 bc3c 7f8a 343c cd68 2ebd 5320 9dbc
000002d0: 752e 1bbd 4190 213c efaf 9bbc 3c03 c8bc
000002e0: f058 4d3b fb22 9e3b ac43 7e3c 9e03 63bc
000002f0: 9b1e 0e3b d139 d33c b1a6 91bb d933 2a3d
00000300: bba7 b739 4296 98bd 7d35 c73c fae8 d03b
00000310: c4ff 893c 43de 993c f6cf 8bbb 103e 78bc
00000320: d1ff 8dbc b42d ef3c 3352 3b3d dc40 aa3c
00000330: 2854 283d 0125 24bc f9ba 96bc 3e97 49bd
00000340: 7b6e 5b3d 7cd8 b4bc cb9b 4f3c 5a08 de3c
00000350: 89ef 21bd 9311 24bd 8c99 d7bc 0aca 023d
00000360: 97da 8b3c 647a 0c3d b6b8 443c 213b 64bb
00000370: 0e39 c93c 7b0d 253d ee6b 883d 637e b9bb
00000380: 5fde 73bd 010e 3bbd 0031 dabc 967f cd3c
00000390: bddc 033d f7af 3fbd fffb 2abd 0c4e 303d
000003a0: 13d7 48bd a53f a93c 732f e5b7 33d4 ec3c
000003b0: fa1b c4bc f5e8 9bbc aa11 22bd 2863 5e3c
000003c0: 87e1 893d 7e59 1cbd 67a4 00bd d8ec 3a3d
000003d0: 6060 6e3d 245b 793c a8e5 57bd 65fc c03c
000003e0: e0c7 04bc 0409 d93c 25d8 b8bc 60bb f0bc
000003f0: 1cc0 36bc db9e 313a 4583 67bb 36b6 ed3c

bias f4 [32]
-0.04097981 -0.008247735 -0.04309432 -0.041496247 -0.019304184 -0.04203267 0.040103704 -0.007979445
-0.009300886 -0.003502376 -0.065084614 -0.06323898 -0.037208688 -0.03038522 -0.05808446 -0.011313621
-0.07514647 -0.020012174 -0.050786864 -0.010103907 -0.09380092 -0.008543485 0.014020133 -0.019285282
-0.06777548 -0.042936165 -0.056472525 0.011105027 -0.047408763 -0.03725406 -0.092254646 0.019640168
00000000: 72da 27bd 8221 07bc ab83 30bd f8f7 29bd
00000010: cf23 9ebc 732a 2cbd c843 243d 38bc 02bc
00000020: be62 18bc 1e88 65bb 154b 85bd 7083 81bd
00000030: 2368 18bd 6dea f8bc f9e9 6dbd c45c 39bc
00000040: 64e6 99bd 92f0 a3bc e305 50bd dc8a 25bc
00000050: b21a c0bd f9f9 0bbc b3b4 653c 2bfc 9dbc
00000060: dfcd 8abd d5dd 2fbd bc4f 67bd dcf1 353c
00000070: b12f 42bd b797 18bd 01f0 bcbd 6be4 a03c

weight f4 [40, 800]
0.009631733 0.011428051 -0.025298974 -0.00953819 -0.059305556 0.024259895 0.007909626 -0.025994973
0.0147832995 -0.01976827 -0.0036353061 0.021875035 0.033985905 -0.02020382 0.00058977155 0.042294864
0.0309071 0.02953245 0.01905416 -0.014476216 0.044718076 0.02232319 0.05091076 0.00312754
0.0113389455 -0.0046291784 -0.01285387 -0.0050099334 -0.0063258815 0.042659886 0.013549241 0.0025047925
0.046210177 0.046644486 0.0057241083 -0.016017256 0.028555602 0.023735294 0.008714737 0.037551314
-0.024264978 -0.015352773 0.03954601 -0.006213846 -0.010251207 0.005883626 0.030654877 -0.017105442
0.04324886 0.04227739 0.00221639 -0.025514588 -0.023075137 -0.016453855 -0.031947237 -0.010346693
0.010525123 -0.05090291 -0.0359738 -0.021968318 -0.002949508 -0.012177388 -0.042517837 -0.04504769
-0.036313217 -0.018784944 -0.022047875 -0.030646501 0.001834488 -0.050727572 0.040410858 -0.026973648
-0.044168703 0.017246963 -0.056839466 0.001733085 0.010150761 -0.012865849 0.018495988 0.0015181671
0.04725453 0.017204605 0.049635485 0.036952958 0.044776566 -0.017843584 0.036103036 0.028647838
0.018584149 -0.015403002 0.035404712 0.03411127 -0.015520222 0.03743344 0.008660857 0.006758569
-0.0036944074 -0.018086348 -0.0035995124 -0.016285244 0.028750623 0.022047564 0.027757645 0.041417927
-0.013913102 -0.02494725 -0.01721618 -0.012405419 0.034498487 0.027392456 -0.017719679 -0.013123545
-0.01312795 0.023707299 0.005163358 0.040175732 0.04316724 0.035536043 0.035356503 -0.009363822
0.03414381 -0.0028209402 -0.020305656 0.034341197 0.010896663 0.013276911 -0.005280612 -0.029297054
-2.5944864e-05 0.008663289 -0.015603709 0.028103959 -0.026030466 -0.023438985 0.009324342 -0.023532258
-0.02339603 -0.00023720428 0.020193892 -0.00040029964 -0.0059146523 0.031877678 0.016982075 -0.0065734615
-0.01827479 0.005376488 -0.02107133 -0.008189898 -0.034423847 0.021109689 -0.013006782 0.009237
0.00413137 0.00051791064 -0.0059642945 0.024046905 -0.0033237655 0.010190989 -0.022735473 -0.011002727
-0.03340644 -0.045614388 0.021940319 0.009683733 0.043544956 -0.053312942 -0.02399427 -0.042685844
0.020762755 -0.0013463991 -0.054873545 -0.017902263 -0.010335124 0.008933055 -0.019950215 -0.034767542
-0.00483044 -0.014544062 -0.0024480186 0.025277736 0.009543352 -0.031641483 -0.008184869 -0.029958095
0.016861452 0.018873662 0.012500489 -0.0069521056 0.03710456 0.0155091 0.00053939805 0.014905829
0.01752036 -0.009754529 0.008474112 0.013222925 0.03211329 -0.009645216 0.02526249 -0.0049986453
-0.017549597 -0.016412292 0.0067706592 -0.025799114 -0.036459815 -0.018231772 1.6209238e-05 0.0036701455
-0.008176726 0.0033807885 -0.056768656 -0.04878832 -0.03544128 -0.036703974 -0.009308841 -0.0004916567
-0.033207737 -0.023000192 -0.0355318 -0.036732815 -0.0117144175 -0.04918949 -0.06653643 -0.04059553
-0.06725998 0.019352475 0.011347707 0.01705241 0.019408926 0.050573412 0.05657759 0.06868507
0.020646716 0.018598367 0.020105077 0.041761007 0.04327105 0.012860136 0.048898883 0.021992672
0.039154183 0.010811992 0.041562334 0.019470697 -0.0038767185 0.016756596 0.04762845 0.049790416
-0.000688804 0.045510337 0.040691454 0.012772714 0.055000592 0.02992932 -0.012127751 0.0065546087
00000000: 6bce 1d3c b83c 3b3c cb3f cfbc 1246 1cbc
00000010: 62ea 72bd b0bc c63c 6097 013c 69f3 d4bc
00000020: a735 723c 11f1 a1bc 513e 6ebb 4633 b33c
00000030: ce34 0b3d 7b82 a5bc e69a 1a3a 613d 2d3d
00000040: e330 fd3c 09ee f13c 7817 9c3c a72d 6dbc
00000050: 4d2a 373d 1fdf b63c cd87 503d 6af7 4c3b
00000060: fcc6 393c 5db0 97bb 0a99 52bc 5e2a a4bb
00000070: 5749 cfbb 22bc 2e3d a3fd 5d3c 7227 243b
00000080: e246 3d3d 4a0e 3f3d 4d91 bb3b 9f36 83bc
00000090: 70ed e93c 8570 c23c 42c8 0e3c 68cf 193d
000000a0: 59c7 c6bc 328a 7bbc fffa 213d 859d cbbb
000000b0: aef4 27bc 6fcb c03b f01f fb3c b620 8cbc
000000c0: b725 313d 0e2b 2d3d db40 113b f803 d1bc
000000d0: 1208 bdbc 3cca 86bc 1bdb 02bd 2d85 29bc
000000e0: 9171 2c3c 927f 50bd 4359 13bd e7f6 b3bc
000000f0: 884c 41bb ab83 47bc 2f27 2ebd ed83 38bd
00000100: 2bbd 14bd e2e2 99bc bf9d b4bc 5f0e fbbc
00000110: 3473 f03a b7c7 4fbd db85 253d d7f7 dcbc
00000120: 3eea 34bd 8149 8d3c 80d0 68bd af28 e33a
00000130: 614f 263c 48cb 52bc e684 973c 3cfd c63a
00000140: f78d 413d acf0 8c3c 944e 4b3d fc5b 173d
00000150: a267 373d b52c 92bc c7e0 133d dfae ea3c
00000160: c93d 983c df5c 7cbc 8804 113d 42b8 0b3d
00000170: 8748 7ebc cf53 193d 44e6 0d3c fc76 dd3b
00000180: df1d 72bb d229 94bc cce5 6bbb a268 85bc
00000190: 6d86 eb3c 189d b43c 0064 e33c d8a5 293d
000001a0: c8f3 63bc 2d5e ccbc f208 8dbc 1940 4bbc
000001b0: 494e 0d3d 2566 e03c dc28 91bc 2304 57bc
000001c0: 9d16 57bc cf35 c23c 6331 a93b 4f8f 243d
000001d0: 22d0 303d 3e8e 113d fbd1 103d b76a 19bc
000001e0: 61da 0b3d 86df 38bb 0c58 a6bc 5ba9 0c3d
000001f0: eb87 323c 6787 593c fc08 adbb 6000 f0bc
00000200: 2ca4 d9b7 78f0 0d3c b3a6 7fbc 463a e63c
00000210: d83d d5bc 1d03 c0bc 20c5 183c b9c6 c0bc
00000220: 08a9 bfbc 0aba 78b9 a96d a53c 4fdf d1b9
00000230: b3cf c1bb 2b92 023d fe1d 8b3c 3166 d7bb
00000240: 03b5 95bc 402d b03b c89d acbc ec2e 06bc
00000250: 0500 0dbd 3aee ac3c 661a 55bc c956 173c
00000260: 7260 873b 65c4 073a 2170 c3bb 04fe c43c
00000270: 88d3 59bb 1bf8 263c be3f babc c844 34bc
00000280: 31d5 08bd 27d6 3abd 2fbc b33c 85a8 1e3c
00000290: 325c 323d ac5e 5abd a28f c4bc 5ad7 2ebd
000002a0: a716 aa3c a879 b0ba 15c3 60bd c4a7 92bc
000002b0: a754 29bc f35b 123c a26e a3bc 6968 0ebd
000002c0: ab48 9ebb 384a 6ebc f06e 20bb 4113 cf3c
000002d0: b85b 1c3c 809a 01bd d419 06bc ae6a f5bc
000002e0: 0721 8a3c f09c 9a3c dace 4c3c 7dce e3bb
000002f0: f3fa 173d e119 7e3c 6466 0d3a 9437 743c
00000300: dc86 8f3c 76d1 1fbc 00d7 0a3c f8a4 583c
00000310: 3a89 033d f806 1ebc 48f3 ce3c adcb a3bb
00000320: 2cc4 8fbc 1273 86bc 68dc dd3b aa58 d3bc
00000330: e356 15bd cc5a 95bc 13f9 8737 d386 703b
00000340: adf7 05bc 3890 5d3b 4086 68bd 43d6 47bd
00000350: e02a 11bd e856 16bd 1c84 18bc 86e2 00ba
00000360: d604 08bd e66a bcbc cb89 11bd 2675 16bd
00000370: d4ed 3fbc eb7a 49bd 4044 88bd 8047 26bd
00000380: 9abf 89bd 1589 9e3c bceb 393c 7fb1 8b3c
00000390: 78ff 9e3c 1126 4f3d e7bd 673d c2aa 8c3d
000003a0: 4d23 a93c 9a5b 983c 67b3 a43c 970d 2b3d
000003b0: fc3c 313d 52b3 523c 324a 483d fa29 b43c
000003c0: 2360 203d c824 313c 443d 2a3d 0381 9f3c
000003d0: 8b10 7ebb 2145 893c 0d16 433d 09f1 4b3d
000003e0: db90 34ba 0c69 3a3d 15ac 263d a544 513c
000003f0: 4d48 613d 552e f53c 79b3 46bc 0bc8 d63b

bias f4 [40]
-0.025805583 0.0065730438 -0.0052473475 0.023980709 -0.010247314 0.019585082 0.0077891625 0.012111999
0.0032245899 0.014859436 -0.013095 0.020549659 0.0090705715 0.004814464 -0.0181483 0.02022949
-0.009988819 0.028484957 0.02693904 -0.02558186 -0.023154503 0.0016751324 -0.0149982255 -4.2262265e-05
-0.024204342 0.0102536725 -0.008348745 0.011041123 0.031082716 -0.030255022 -0.0016560857 0.025474189
-0.024665859 -0.009046461 0.0286014 0.025681471 -0.03084563 0.017331019 0.0016220906 0.022555089
00000000: 3b66 d3bc b062 d73b f1f1 abbb 3173 c43c
00000010: 5ae4 27bc e570 a03c 3b3c ff3b 6871 463c
00000020: a453 533b fe74 733c 698c 56bc c257 a83c
00000030: bc9c 143c a7c2 9d3b beab 94bc 51b8 a53c
00000040: 25a8 23bc 4959 e93c 43af dc3c 0d91 d1bc
00000050: 83ae bdbc 1e90 db3a 1ebb 75bc c342 31b8
00000060: 2f48 c6bc 05ff 273c 2dc9 08bc d4e5 343c
00000070: 2ea1 fe3c 61d9 f7bc 0411 d9ba 3faf d03c
00000080: 0e10 cabc 9c37 14bc 7c4d ea3c f361 d23c
00000090: faaf fcbc c8f9 8d3c 549c d43a 73c5 b83c

weight f4 [2, 40]
0.3318278 0.12931594 0.7927915 -0.8279087 0.14231068 -0.5675248 0.26635465 -0.20258969
-0.47005692 0.098950125 0.05835127 1.0290127 -0.14648679 -0.06211226 0.28719148 -0.2396172
-0.031244224 0.80168873 -0.31340227 0.00095230155 -0.101952106 -0.13153966 0.08301561 0.094213374
-0.0748393 0.3647445 -0.35702962 -0.11952921 -0.15604785 0.34991807 -0.068932734 0.3620313
0.267056 -0.65361387 -0.8096674 0.04708416 -0.35586882 -0.10405302 -0.026122952 -0.20249905
-0.42062676 -0.24149364 -0.75791883 0.87142515 0.03046825 0.35600838 -0.14491682 0.13899878
0.47941616 0.12574077 -0.14611544 -0.9409276 -0.056880027 -0.16990505 -0.19181122 -0.032152798
-0.030521838 -0.7604938 0.05497683 -0.0437051 -0.052826844 0.42376307 0.1523738 -0.026518872
0.17107144 -0.22299789 0.42290014 0.002531554 -0.106490985 -0.3077278 -0.15365684 -0.13375133
-0.025474776 0.7167957 0.7020935 -0.076245174 0.4316632 -0.09932827 0.08632735 0.0020677396
00000000: 55e5 a93e 666b 043e 62f4 4a3f d3f1 53bf
00000010: e4b9 113e 4e49 11bf a35f 883e ac73 4fbe
00000020: 4dab f0be 5da6 ca3d be01 6f3d b0b6 833f
00000030: a200 16be 6d69 7ebd c30a 933e 365e 75be
00000040: e3f3 ffbc 793b 4d3f 4376 a0be e0a3 793a
00000050: 44cc d0bd 55b2 06be 1704 aa3d f1f2 c03d
00000060: 5945 99bd cbbf ba3e 96cc b6be bbcb f4bd
00000070: 02cb 1fbe 7628 b33e 9b2c 8dbd 2b5c b93e
00000080: 90bb 883e 3d53 27bf 5d46 4fbf 52db 403d
00000090: 7034 b6be c019 d5bd cdff d5bc e95b 4fbe
000000a0: 645c d7be 1c4a 77be f806 42bf b815 5f3f
000000b0: 8d98 f93c bb46 b63e 1365 14be b255 0e3e
000000c0: 0976 f53e 30c2 003e 499f 15be a2e0 70bf
000000d0: 08fb 68bd 97fb 2dbe 296a 44be a7b2 03bd
000000e0: ef08 fabc b9af 42bf 622f 613d 1e04 33bd
000000f0: f660 58bd 79f7 d83e e107 1c3e 1b3e d9bc
00000100: 5a2d 2f3e 8f59 64be 5e86 d83e 6ee8 253b
00000110: f217 dabd 808e 9dbe 3858 1dbe 1cf6 08be
00000120: 7ab0 d0bc ec7f 373f 66bc 333f 6e26 9cbd
00000130: f502 dd3e 9f6c cbbd 65cc b03d ea82 073b

bias f4 [2]
0.020261407 0.0076088402
00000000: 40fb a53c 9453 f93b
